models_diff_lr_rates.pth (torch_old, 33505 bytes, 7 tensors)

embed.weight f4 [100, 30]
0	0x3cf0ed45	0.029410014
1	0x3f50e098	0.815927
2	0x3eca390f	0.39496657
3	0x3f86e862	1.0539668
4	0x3f832742	1.0246356
5	0x3db55f22	0.08856036
6	0xbf458606	-0.7715763
7	0xbf9ce6fe	-1.2257993
8	0x3f40b0fa	0.75270045
9	0x3f01a4df	0.506422
10	0xbdcf4d68	-0.10122186
11	0xbfbb3ce2	-1.4627955
12	0xbcfd1589	-0.030894058
13	0xbdb4d43a	-0.088295415
14	0x3db726f9	0.0894298
15	0xbdc20978	-0.09474462
16	0x3e9df67b	0.30852112
17	0xbfe8bdd9	-1.8182937
18	0x3f4bd337	0.79619163
19	0x3e2f2ec7	0.17107688
20	0x3f4d1676	0.801124
21	0x3eb05c78	0.34445548
22	0xbff370d5	-1.9018809
23	0x3f978ba1	1.1839486
24	0xbf3bacea	-0.7331072
25	0x3e3ce9d5	0.18448575
26	0x3ec02732	0.37529904
27	0x3ef536d9	0.47893408
28	0xbf5163c7	-0.81792873
29	0x3fa3d071	1.2797986
30	0x3f259e50	0.6469469
31	0xbddd1a50	-0.10796034
32	0xbeeeb625	-0.4662334
33	0xbf05b3b2	-0.5222732
34	0xbfa12c5e	-1.2591665
35	0x3fd0a230	1.6299496
36	0xbeeac2d1	-0.45851758
37	0xbf0aa9d1	-0.5416537
38	0xbec6490d	-0.38727608
39	0xbf651098	-0.89478445
40	0x3e2b57b0	0.16732669
41	0x3f12ec17	0.57391495
42	0x3f84c6ef	1.037321
43	0x3db0a04c	0.08624324
44	0x3f3dbe32	0.7411834
45	0x3f341a35	0.7035249
46	0xbe6a23d9	-0.22865237
47	0x3e81052e	0.25199264
48	0x3ed875a9	0.42277268
49	0x3f6c68b1	0.92347246
50	0x3f3e44e7	0.74323887
51	0x3d6f08e1	0.058358077
52	0xbf1fa258	-0.6235709
53	0x3f988179	1.1914512
54	0xbec9e55b	-0.39432797
55	0x3fb68920	1.4260597
56	0xbceee248	-0.029160634
57	0xbf8c7825	-1.0974165
58	0x3f36b353	0.7136738
59	0xbed1cc55	-0.40976205
60	0x3fabd3e6	1.3424041
61	0xbfe924fe	-1.8214414
62	0x3e914dc4	0.28379643
63	0xbf31cf29	-0.69456726
64	0x3c970cdb	0.018438747
65	0xbe096d1f	-0.13420533
66	0xbfc7e3b0	-1.561636
67	0xbe6a5fbc	-0.22888082
68	0x3e20bba3	0.15696578
69	0x3f100bab	0.56267804
70	0xc00d5307	-2.2081926
71	0x3ee01313	0.43764552
72	0x3f0862d8	0.53275824
73	0xbfa5a2d4	-1.2940316
74	0x3ff71c49	1.9305507
75	0xbf1fd72e	-0.62437713
76	0xbfb5a8d6	-1.419215
77	0x3de9b8c1	0.11412192
78	0xbfb0665d	-1.3781239
79	0xbf975ab1	-1.1824552
80	0xbf814762	-1.0099909
81	0x3fd2818e	1.6445787
82	0xbf8c3fa7	-1.0956925
83	0xc0138f10	-2.3056068
84	0xbe6953f3	-0.2278593
85	0xbfb37bb9	-1.4022132
86	0x3c0f4675	0.008744826
87	0xbfc2fb4b	-1.5232939
88	0xbf4e32e3	-0.80546397
89	0x3e002bf6	0.1251677
90	0xbf68d1b8	-0.90945005
91	0xbf30caf8	-0.69059706
92	0xbfd3d603	-1.6549686
93	0xbf0324bd	-0.51227933
94	0x3badffd4	0.005310038
95	0x3eaf18ee	0.34198707
96	0x3f5b1e6d	0.855933
97	0x3f26f0f3	0.6521141
98	0x3f87bade	1.0603902
99	0xbf4404dc	-0.76569915
100	0x3f9cd4fd	1.2252499
101	0xbfbe893d	-1.4885632
102	0xbfcad86a	-1.5847294
103	0x3d05cecb	0.032667916
104	0x3f84caa5	1.0374342
105	0x3f808421	1.0040323
106	0x3eb27fbb	0.34863076
107	0x3f9b246a	1.2120488
108	0xbd5c14d6	-0.05373081
109	0x3fd37336	1.6519535
110	0xbf84940b	-1.0357679
111	0xbd711e0b	-0.05886654
112	0xbe20e7a6	-0.15713367
113	0x3e634dfd	0.22197719
114	0x3e5662eb	0.20936172
115	0x3d074b97	0.033031072
116	0x3e62746b	0.22114722
117	0x3f6a14be	0.914379
118	0xbf7c42ee	-0.98539627
119	0x3fc81e60	1.563427
120	0x3e2d4d04	0.1692391
121	0xbf398ad4	-0.7247746
122	0xbf8fa862	-1.1223261
123	0x40061282	2.0948796
124	0xbec86666	-0.39140624
125	0x3f8e4fc4	1.1118093
126	0xc0148e02	-2.3211675
127	0xbf8fafda	-1.1225541
128	0xbfae2256	-1.3604228
129	0xbebfcdf8	-0.3746183
130	0xbf95e66b	-1.1710943
131	0x3f86b2ff	1.0523375
132	0xbf04b1d7	-0.5183386
133	0x3f213e6a	0.6298586
134	0xbe0f6c58	-0.14006174
135	0x3eaa13ea	0.33218318
136	0x3f0f540e	0.5598763
137	0xbfabf432	-1.3433897
138	0xbf610687	-0.87900585
139	0xbfabe754	-1.3429971
140	0x3e41fd63	0.18944316
141	0x3fe211cf	1.7661685
142	0x3f153349	0.5828138
143	0x3da07d98	0.07836455
144	0x3faea211	1.3643209
145	0xbe971e43	-0.29515275
146	0x3ffbc544	1.9669576
147	0xbf0593a7	-0.52178425
148	0xbba7d50c	-0.0051218327
149	0xc02e2084	-2.7207346
150	0x3f3200dc	0.6953256
151	0xbf17d8a3	-0.59314936
152	0xbda9681d	-0.08271811
153	0xbfc45697	-1.5338925
154	0xbee648d3	-0.44977435
155	0xbeb9f805	-0.36322036
156	0x3e0aca7f	0.13553809
157	0x3dd57555	0.1042277
158	0x3eea4385	0.45754638
159	0x3f2c67a1	0.67345625
160	0xbe92169a	-0.2853287
161	0x3fad52dc	1.3540912
162	0xbf3e8dd2	-0.7443515
163	0x3f24c361	0.64360625
164	0x3f6a6c8c	0.9157188
165	0xbebd9c83	-0.3703347
166	0xbfb7b81d	-1.4353062
167	0x3d83f0d7	0.06442421
168	0xbf7c348d	-0.98517686
169	0xbf3471fa	-0.70486414
170	0xbfa18f1e	-1.2621801
171	0xbfbd267f	-1.4777373
172	0x3ef40eb7	0.47667477
173	0x3f1a26d5	0.602155
174	0xbf8af6ce	-1.0856569
175	0xbfbb0639	-1.4611274
176	0x3e1055b2	0.1409519
177	0xbe107556	-0.1410726
178	0xc0301caa	-2.7517495
179	0x3f97eccf	1.1869143
180	0xbf2cf700	-0.6756439
181	0xbfc954c2	-1.5728991
182	0xbfb45b82	-1.4090426
183	0xbf50b0d0	-0.81519794
184	0x3e906267	0.28200075
185	0x3f0ae2f6	0.54252565
186	0xbf095d75	-0.5365823
187	0xbea51bef	-0.32247874
188	0x3ed5cc57	0.4175746
189	0xbf068682	-0.5254899
190	0xbf969427	-1.1763963
191	0xbff6e914	-1.928988
192	0xbfb9d9f3	-1.4519638
193	0xbed134d5	-0.4086062
194	0x3f5ba67d	0.85800916
195	0xbf551906	-0.8324131
196	0x3f012fcf	0.50463575
197	0xbf5e5a90	-0.8685694
198	0xbe219abf	-0.15781687
199	0x3f2adee0	0.6674633
200	0xbf21a906	-0.63148534
201	0x3ff33304	1.8999944
202	0xbfd0b732	-1.6305907
203	0xbe5f7395	-0.21821435
204	0x3f23de3d	0.64010984
205	0x3dfc3931	0.12315596
206	0x3f13143a	0.5745274
207	0x3f1b4b9b	0.6066224
208	0xbf8c50f5	-1.0962206
209	0x3f0f6bcc	0.5602386
210	0xbec8a645	-0.39189354
211	0x3f8e9fa7	1.1142472
212	0xbf245ed7	-0.64207214
213	0x3f5481a8	0.8301034
214	0x3f4e2c6c	0.8053653
215	0xbfdbac35	-1.7161928
216	0xbf726ef1	-0.94700533
217	0x3fc48996	1.5354488
218	0x3e1bfe00	0.15233612
219	0xbfff5a3b	-1.9949411
220	0xbf02ced7	-0.5109686
221	0x3fb3bf37	1.4042729
222	0x3f9a41f6	1.205138
223	0xbf103d83	-0.5634386
224	0x3f589140	0.84596634
225	0xbf8ee9c4	-1.116509
226	0xbd7875e9	-0.060659323
227	0xbfcc110e	-1.5942705
228	0xbca1e1d2	-0.019761
229	0x3e831283	0.2560006
230	0xbeb0ca3d	-0.34529296
231	0x3d4e124c	0.050310418
232	0x3f866e6c	1.0502448
233	0xc00bd724	-2.1850061
234	0xbf946e3a	-1.1596138
235	0x3e3898f9	0.18027104
236	0xbef6a083	-0.48169336
237	0x3f04f301	0.51933295
238	0xbe3e86fa	-0.18606177
239	0xbfcf58bf	-1.6198958
240	0x3f376a91	0.7164698
241	0xbf5bcd1e	-0.8585986
242	0xbfbfaca3	-1.497456
243	0x3f66a1ae	0.90090454
244	0x3e29c526	0.16579112
245	0xbfc54319	-1.5411102
246	0x3f5f463c	0.87216544
247	0xbfad8050	-1.3554783
248	0xbfde416b	-1.7363714
249	0xbebdc059	-0.37060812
250	0x3eb4074c	0.35161817
251	0xbf42146e	-0.75812423
252	0x3f5d7432	0.86505425
253	0xbe7b1003	-0.24517827
254	0xbf58b206	-0.8464664
255	0x3e9dc817	0.3081672

lstm.weight_ih_l0 f4 [40, 31]
0	0x3e9837d0	0.29730082
1	0xbe58cfee	-0.21173069
2	0x3d556e09	0.05210689
3	0x3d86e41b	0.065864764
4	0x3e7a85be	0.24465081
5	0xbe0c88f9	-0.13724126
6	0xbd3ba254	-0.045809105
7	0xbe56c299	-0.2097267
8	0xbe76314c	-0.24042243
9	0x3d158c9f	0.03651106
10	0x3d14dc95	0.036343176
11	0x3e20a2c9	0.15687098
12	0xbdda3544	-0.10654691
13	0x3e065daf	0.13121675
14	0xbda1e6bd	-0.07905338
15	0xbe29660f	-0.16542839
16	0xbe85325f	-0.26014993
17	0xbd28047e	-0.04101991
18	0xbdd230b2	-0.10263194
19	0x3c86f342	0.016473416
20	0xbdb25924	-0.087084085
21	0x3c2bc679	0.010484331
22	0xbdacadc9	-0.084315844
23	0x3d505b26	0.050868176
24	0x3d82cae0	0.063863516
25	0xbde40b37	-0.111349516
26	0x3d3dd37a	0.046344258
27	0x3e217a70	0.15769362
28	0x3e507090	0.20355439
29	0xbe1cdff0	-0.153198
30	0x3ebd2c71	0.3694797
31	0x3f03cb42	0.5148202
32	0xbec2bc1d	-0.38034144
33	0x3e953876	0.2914464
34	0xbe7b9377	-0.24567972
35	0x3e34a207	0.17639934
36	0x3e07e6bb	0.1327161
37	0x3f24bf38	0.64354277
38	0x3e5f7e6e	0.21825573
39	0x3f52bb18	0.8231673
40	0xbef43eba	-0.47704107
41	0x39e6ae5d	0.0004399893
42	0x3dfed7c0	0.12443495
43	0x3e600dee	0.21880314
44	0xbed30c85	-0.4122049
45	0x3ed542f4	0.41652644
46	0xbc6897b8	-0.014196329
47	0xbe4497b4	-0.19198495
48	0xbe586ee4	-0.21136051
49	0x3e65b04e	0.22430536
50	0xbed525eb	-0.41630492
51	0x3f4df0ba	0.80445445
52	0xbf9ad4b0	-1.2096157
53	0xbe29983a	-0.16561976
54	0xbf0e42ea	-0.5557085
55	0xbdcf4c1f	-0.10121941
56	0x3dc17b4c	0.09447345
57	0x3b882ca3	0.0041557117
58	0x3ef1eaba	0.47249395
59	0x3e3eba3e	0.18625733
60	0xbeaa9d33	-0.33323058
61	0x3da0b775	0.07847492
62	0xbe9059d1	-0.28193524
63	0xbe68e08d	-0.2274191
64	0xbe98468a	-0.29741317
65	0xbe8d4b21	-0.2759638
66	0xbf164a8e	-0.5870751
67	0xbf01155d	-0.5042322
68	0xbe810851	-0.25201657
69	0xbeb6ec24	-0.35727036
70	0xbe6e40f4	-0.23266965
71	0xbec1204d	-0.37719956
72	0xbe67738e	-0.22602674
73	0x3d3a2129	0.04544178
74	0xbe118999	-0.14212646
75	0x3d629377	0.055316415
76	0xbf098e45	-0.5373271
77	0xbda41123	-0.08011081
78	0x3d744330	0.059634387
79	0xbe79b858	-0.24386728
80	0xbe295778	-0.16537273
81	0xbe38614d	-0.18005867
82	0x3e67627a	0.2259616
83	0xbf0b82a1	-0.544962
84	0xbf1a4873	-0.602668
85	0x3db889df	0.09010672
86	0xbe396aa6	-0.1810709
87	0x3d71521d	0.0589162
88	0xbb402dd5	-0.0029324193
89	0xbea51b3e	-0.32247347
90	0xbe10dd60	-0.14146948
91	0xbebeabfe	-0.37240595
92	0x3e4b97af	0.19882081
93	0x3da54aa1	0.08070875
94	0xbe73e742	-0.23818687
95	0x3deed06a	0.116608456
96	0x3ed71c00	0.4201355
97	0xbec41941	-0.38300517
98	0x3e83e94e	0.25763935
99	0x3e94f913	0.2909628
100	0xbdf2e22b	-0.11859544
101	0x3ee587f6	0.44830292
102	0x3f0e62f7	0.5561976
103	0x3e366d1d	0.17815061
104	0x3dfd12da	0.12357111
105	0x3dae13bb	0.08499857
106	0xbecfca9f	-0.40584275
107	0x3c297369	0.010342457
108	0x3e04a91a	0.12955132
109	0xbe18dbd9	-0.14927615
110	0x3d92cf43	0.07168438
111	0x3ecbf247	0.3983328
112	0xbd1668a6	-0.036720894
113	0x3ef9e38e	0.48806423
114	0xbeebce59	-0.46055868
115	0xbba2a302	-0.0049632797
116	0x3dfa7212	0.122287884
117	0xbe5fd5d0	-0.21858907
118	0x3ea27902	0.31732947
119	0xbd4d7451	-0.050159756
120	0x3ec44f27	0.38341638
121	0x3ef8a53c	0.48563564
122	0x3ee04118	0.43799663
123	0x3ec2df45	0.38060966
124	0xbd46a771	-0.04849953
125	0x3ed91cc9	0.42404774
126	0x3db7f86d	0.0898293
127	0x3db18ed1	0.08669818
128	0x3eed54c3	0.4635373
129	0x3eb344bc	0.35013378
130	0x3e5b3592	0.21407154
131	0x3ea5eb4c	0.3240608
132	0x3e8a9dc7	0.270735
133	0x3e8d8866	0.27643126
134	0x3f04de5c	0.51901793
135	0x3e431492	0.19050816
136	0xbe226083	-0.15857129
137	0x3de20aad	0.110371925
138	0x3cede611	0.029040368
139	0xba3e8dc3	-0.0007269049
140	0x3db0fdd5	0.086421646
141	0x3e560e85	0.20903976
142	0x3ec04957	0.37555954
143	0x3dff708c	0.124726385
144	0x3eaa32d6	0.3324191
145	0x3eaa84c6	0.33304423
146	0x3f0d6e4e	0.55246437
147	0x3e703132	0.23456267
148	0x3e01f817	0.12692295
149	0x3cf2f621	0.029658379
150	0x3e233dbd	0.1594152
151	0xbd3528ee	-0.044228487
152	0xbdc14837	-0.09437602
153	0xbc9cc0e5	-0.019134948
154	0x3cd10cef	0.025518863
155	0x3f0ed31b	0.5579087
156	0xbce73cdf	-0.028227268
157	0x3e77d0b7	0.24200712
158	0x3e96fb23	0.29488477
159	0xbe185515	-0.14876206
160	0x3e003831	0.12521435
161	0x3ed0d048	0.40783906
162	0xbe861117	-0.26184914
163	0x3dce5799	0.10075302
164	0x3ef2caa2	0.47420222
165	0x3f21a502	0.63142407
166	0xbe95e70e	-0.29277843
167	0xbe05b03c	-0.1305551
168	0x3e904c29	0.28183106
169	0x3e81fccb	0.25388178
170	0xbdb8debe	-0.0902686
171	0x3e4c7e17	0.19969974
172	0x3ebef1c4	0.37293828
173	0x3dd38b0b	0.10329255
174	0x3eb91baf	0.36153933
175	0x3edb4e9c	0.42833412
176	0xbea439c4	-0.32075322
177	0xbe0ffcd3	-0.14061289
178	0x3eba2152	0.36353546
179	0xbe12d991	-0.14340807
180	0x3d77b9d6	0.06047996
181	0x3f01545c	0.5051935
182	0xbe1480c4	-0.14502245
183	0x3e8aaa0b	0.27082857
184	0x3e9c1098	0.3048141
185	0x3ee7c6d8	0.45268893
186	0x3f0d4441	0.5518227
187	0x3e1becd6	0.15227064
188	0x3e95c06c	0.2924837
189	0xbd8dd5e3	-0.06925561
190	0x3ea4da9b	0.32198033
191	0x3ef6de9f	0.4821672
192	0x3f4385ce	0.76376045
193	0x3bcaa726	0.0061844764
194	0x3ee6ba9e	0.45064253
195	0x3f4d2356	0.80132043
196	0x3f11a258	0.5688834
197	0xbde6a009	-0.11260993
198	0xbd934234	-0.071903616
199	0x3e24779a	0.1606125
200	0xbdd2f5e8	-0.10300809
201	0xbd8150de	-0.06314252
202	0x3ec4aa1e	0.3841104
203	0x3e8f0048	0.27929902
204	0x3ea8fdea	0.3300622
205	0x3dd5991f	0.10429596
206	0x3e9893c3	0.29800233
207	0xbed37895	-0.41302934
208	0xbdb13db2	-0.086543456
209	0x3ebb2d8c	0.36558187
210	0x3eac6d0c	0.33676946
211	0x3e2fc2fc	0.17164224
212	0x3e905f06	0.28197497
213	0xbc5b9aa1	-0.013403566
214	0x3d73c633	0.05951519
215	0x3ec084e0	0.37601376
216	0xbd5ef5fb	-0.054433804
217	0x3d0c3797	0.034232702
218	0x3f011ed4	0.50437665
219	0x3f014c40	0.50506973
220	0x3ee2e8f1	0.44318345
221	0x3cb1ad20	0.021688998
222	0x3e73d32e	0.23811027
223	0x3e135cd8	0.14390886
224	0x3ee44d77	0.4459035
225	0x3e80c9c1	0.25153926
226	0xbda37d56	-0.0798289
227	0x3e44dc96	0.19224772
228	0x3dd788b0	0.10524118
229	0xbd457fc1	-0.04821754
230	0x3d4fbc7d	0.050716866
231	0x3d3d2f20	0.04618752
232	0x3ed11052	0.40832764
233	0xbc09e1c9	-0.008415648
234	0x3d2f2417	0.042759027
235	0x3e1c0253	0.15235262
236	0x3e91d21f	0.28480622
237	0x3c1b951b	0.009495999
238	0x3e91fa85	0.28511444
239	0x3e839e04	0.25706494
240	0x3e99df75	0.30053297
241	0x3e91742b	0.28408942
242	0xbd94dbae	-0.07268463
243	0x3ea01c8b	0.31271777
244	0x3df29b79	0.1184606
245	0x3cfa0500	0.030519962
246	0x3e869b0c	0.26290166
247	0x3e32f119	0.17474784
248	0xbc9a3ca1	-0.018827738
249	0x3e86849b	0.26273045
250	0xbc21c3c2	-0.009873332
251	0x3eb17430	0.34658957
252	0x3efb0940	0.49030495
253	0x3dde0545	0.10840849
254	0x3dc787cb	0.09742697
255	0x3e7caf6c	0.24676293

lstm.weight_hh_l0 f4 [40, 10]
0	0x3ee4e098	0.447026
1	0xbe15b4d0	-0.14619756
2	0x3e97bff5	0.2963864
3	0x3e931fd4	0.2873522
4	0xbd7482e8	-0.059695154
5	0xbddf9ed1	-0.10918964
6	0x3d8ee8f7	0.06978028
7	0xbc86cfd3	-0.01645652
8	0xbe0de3f4	-0.13856488
9	0xbdc84774	-0.097792536
10	0x3e3e730f	0.18598579
11	0xbf72ad5e	-0.9479579
12	0x3e462d1a	0.19353142
13	0x3f228052	0.6347705
14	0x3ebf529d	0.37367716
15	0x3d3dc4bc	0.0463302
16	0x3e9505ce	0.2910599
17	0x3ea09b55	0.3136851
18	0xbe0958ab	-0.1341273
19	0x3c9396e9	0.018016296
20	0x3e1fff5e	0.15624759
21	0xbd606085	-0.05477955
22	0xbcb6ff69	-0.022338586
23	0x3e7291a1	0.23688366
24	0x3ea66b0d	0.32503548
25	0xbe851d23	-0.25998792
26	0xbd8d18b0	-0.068894744
27	0x3e431e72	0.19054583
28	0x3d117115	0.035508234
29	0xbe81527b	-0.2525824
30	0x3f0a100a	0.53930724
31	0xbea6a649	-0.3254874
32	0x3e7af414	0.24507171
33	0xbcb4d707	-0.02207519
34	0x3fd6c1cc	1.6777892
35	0xbf2db096	-0.67847574
36	0x3e3941da	0.18091527
37	0xbf09430f	-0.5361795
38	0x3ec6b7b7	0.38812038
39	0xbef2fbc9	-0.47457722
40	0xbe8fb950	-0.2807107
41	0xbe6e7e6c	-0.23290414
42	0xbe09b2c2	-0.13447097
43	0x3ccdfe8b	0.02514579
44	0x3e999b94	0.3000151
45	0xbea05fe6	-0.31323165
46	0x3df24d57	0.11831158
47	0xbe5471a4	-0.20746475
48	0xbe998cd8	-0.29990268
49	0xbca4d77f	-0.020122288
50	0x3e831a0e	0.25605816
51	0x3e5af8c5	0.2138396
52	0xbe5607e4	-0.20901448
53	0xbeb95929	-0.36200836
54	0x3fc75cab	1.5575155
55	0xbf5168c0	-0.8180046
56	0x3f192e5e	0.59836376
57	0xbebe77d3	-0.37200794
58	0x3e0ae992	0.13565663
59	0xbe141d91	-0.14464404
60	0xbdb3326d	-0.08749852
61	0x3e0aaee2	0.13543275
62	0x3d9b3d9c	0.075801104
63	0x3ecf9bd1	0.40548566
64	0x3ed409e1	0.41413787
65	0xbeab4844	-0.33453572
66	0x3f3ebf38	0.74510527
67	0xbeee8b6b	-0.46590742
68	0xbd0b961d	-0.034078706
69	0xbe337493	-0.17524938
70	0x3de57154	0.11203256
71	0x3e80d319	0.25161055
72	0x3d913de3	0.07091882
73	0xbdf7531c	-0.12076399
74	0x3ca4fc2b	0.020139774
75	0x3e9634cb	0.29337153
76	0x3dcd18d5	0.10014502
77	0x3c6a47f9	0.014299386
78	0x3befc036	0.0073166145
79	0x3e87d7f7	0.26531956
80	0x3db10d72	0.086451426
81	0xbe95e040	-0.29272652
82	0x3c4047ea	0.011735896
83	0x3e461d82	0.19347194
84	0x3dbf7b95	0.09349743
85	0xbe618e14	-0.22026855
86	0x3e349809	0.17636122
87	0xbd91002b	-0.0708011
88	0x3dae02c7	0.084966235
89	0xbe73e9ba	-0.23819628
90	0x3e91fab7	0.28511593
91	0x3dde36b1	0.10850275
92	0x3dfe1a8c	0.12407407
93	0xbdde3e74	-0.10851756
94	0xbe6e95dc	-0.23299354
95	0xbda08f11	-0.07839788
96	0x3cf6d82d	0.030132378
97	0xbdb7cea3	-0.0897496
98	0xbe314514	-0.17311507
99	0xbe15773b	-0.14596264
100	0x3e84217a	0.2580679
101	0xbd9d96d9	-0.076947875
102	0xbe97c5a0	-0.29642963
103	0xbe0172f2	-0.12641504
104	0x3d45cbb8	0.048289984
105	0xbe92ece8	-0.2869637
106	0x3ead99f1	0.3390651
107	0xbe6e9edb	-0.23302786
108	0x3e261d86	0.162222
109	0x3d9de55b	0.07709762
110	0x3eab58ff	0.33466336
111	0x3be3af51	0.0069483896
112	0x3e09c818	0.13455236
113	0x3cc3df5d	0.023910219
114	0x3df569de	0.11983083
115	0xbde1fa0a	-0.11034019
116	0xbe450f4e	-0.1924412
117	0xbe4028aa	-0.18765512
118	0x3e9599a7	0.2921879
119	0xbe92b95b	-0.2865704
120	0x3e6611e9	0.2246777
121	0x3d815dd2	0.06316723
122	0x3dff9b9c	0.12480852
123	0xbe863240	-0.26210213
124	0xbd8b28e5	-0.067949094
125	0x3e695f8c	0.22790354
126	0x3e2dc88b	0.16971032
127	0xbdd18697	-0.10230749
128	0xbc4ce761	-0.012506337
129	0x3c8cfe11	0.017210992
130	0x3f4f23a7	0.80913776
131	0x3dd7c513	0.10535636
132	0xbd877f9c	-0.066161364
133	0x4028a062	2.634789
134	0x408c1ad0	4.378273
135	0xbeb05f1e	-0.3444757
136	0x3e605a3e	0.21909425
137	0x3e6d0a05	0.23148353
138	0x3cc9f831	0.02465448
139	0x3dfcf0c6	0.123506114
140	0xbe8037e7	-0.2504265
141	0xbeb50263	-0.35353383
142	0xbd061fc6	-0.032745145
143	0xbeb57ca8	-0.35446668
144	0x3e844629	0.25834778
145	0xbe55c671	-0.2087648
146	0xbe295d7c	-0.16539568
147	0xbc8aecf1	-0.016958686
148	0x3e967abd	0.29390517
149	0xbeaada02	-0.33369452
150	0x3d7d02a0	0.06177008
151	0x3e1f10e5	0.15533789
152	0x3e9950ce	0.29944462
153	0x402a7f70	2.6640282
154	0x4080ce16	4.025157
155	0xbf104135	-0.563495
156	0x3cdb4fb3	0.026771402
157	0xbe2da736	-0.16958317
158	0xbdfd40c0	-0.12365866
159	0xbe8160e4	-0.25269234
160	0xbd2a0edf	-0.04151809
161	0xb9046bb2	-0.0001262862
162	0xbdbe1310	-0.0928098
163	0x3f914ce4	1.135159
164	0x3e140994	0.14456779
165	0xbdc8a6f4	-0.09797469
166	0xbd247e5c	-0.04015957
167	0xbe54e907	-0.20792018
168	0x3d7457b6	0.05965396
169	0xbd7899c3	-0.060693514
170	0xbe878a9a	-0.26472932
171	0x3dba4204	0.09094623
172	0x3e187c26	0.14891109
173	0xbe4d182f	-0.20028757
174	0xbe83b128	-0.25721097
175	0x3e82cf6b	0.25548872
176	0x3e5e58ce	0.21713564
177	0xbe4d12b8	-0.20026672
178	0xbd817506	-0.063211486
179	0x3d899479	0.06717772
180	0x3e80c713	0.25151882
181	0x3e7995de	0.24373576
182	0x3dc8c734	0.0980362
183	0xbe840d43	-0.25791368
184	0xbd5a6380	-0.053317547
185	0x3e1f155c	0.15535492
186	0xbec485af	-0.38383242
187	0xbe1d7e98	-0.15380323
188	0x3db53a9b	0.08849069
189	0xbd92b627	-0.07163649
190	0xbe9b05ad	-0.30277768
191	0xbe0c4905	-0.1369973
192	0x3d9cd9d1	0.07658733
193	0x3e39835c	0.18116516
194	0x3d65e5f8	0.05612752
195	0x3d16f529	0.036854897
196	0xbe05d15e	-0.13068148
197	0x3d2222fa	0.039584137
198	0xbeb4c6c9	-0.3530791
199	0xbe4d6ab8	-0.20060241
200	0xbedbc7b7	-0.42925808
201	0xbec48239	-0.38380602
202	0xbd00c99f	-0.03144228
203	0xbfc4eff9	-1.5385734
204	0xbee95624	-0.45573533
205	0x3f013723	0.50474757
206	0xbdeef6b4	-0.11668149
207	0x3e8150fd	0.25257102
208	0x3de9db7d	0.11418817
209	0x3d8d7fb6	0.069091246
210	0xbd9db7d9	-0.07701082
211	0xbe35e5d1	-0.17763449
212	0xbe8ec158	-0.27881885
213	0xbd9520fb	-0.07281681
214	0xbd7176d4	-0.058951214
215	0xbe7fb3c1	-0.24970914
216	0xbe692d74	-0.22771245
217	0xbc9aa054	-0.018875279
218	0x3e1429ed	0.14469118
219	0x3dd83d06	0.10558514
220	0xbe8627b9	-0.2620218
221	0x3dffaa6d	0.12483678
222	0xbe94cb2c	-0.29061258
223	0x3e930425	0.287141
224	0x3d85491d	0.06508086
225	0xbea35585	-0.31901184
226	0xbe04c125	-0.12964304
227	0xbe01597c	-0.12631792
228	0x3e75e5dd	0.24013467
229	0xbe12e0b4	-0.1434353
230	0x3e3aaabb	0.18229191
231	0x3dd50a4a	0.10402353
232	0xbe0103b3	-0.12599067
233	0xbe7507f0	-0.23928809
234	0xbdd6f142	-0.10495235
235	0x3c615106	0.013752228
236	0xbeb06036	-0.34448403
237	0x3e8bed9e	0.27329725
238	0xbe81cbdd	-0.25350848
239	0x3e16df61	0.1473365
240	0x3e0d0ac0	0.13773632
241	0xbe62f4e3	-0.2216373
242	0xbe33cb59	-0.1755804
243	0xbe9d72fe	-0.30751795
244	0xbdbf8472	-0.09351434
245	0x3ea08b17	0.31356117
246	0xbe0233c8	-0.12715065
247	0xbd9a26d7	-0.07526939
248	0x3d276d18	0.040875524
249	0x3e55c4b5	0.20875819
250	0xbe07980e	-0.13241598
251	0x3e2294a9	0.15877022
252	0xbe2c2dfd	-0.16814418
253	0xbe428775	-0.18996985
254	0xbd9ac099	-0.07556266
255	0x3db4a47c	0.088204354

lstm.bias_ih_l0 f4 [40]
0	0xbe025d64	-0.12730938
1	0xbd9bcf6b	-0.07607921
2	0xbdc91ef0	-0.09820354
3	0x3c266eaa	0.01015822
4	0xbd082e58	-0.03324732
5	0x3e5b4f21	0.21416904
6	0x3e6b742b	0.22993533
7	0x3c81b26b	0.015832147
8	0x3e4ae223	0.19812827
9	0x3e1674d8	0.1469301
10	0xbbd879ee	-0.006606332
11	0xbb8bc7be	-0.0042657545
12	0xbe0dd3fa	-0.13850394
13	0x3d9b9e05	0.07598499
14	0xbe97af1f	-0.29625794
15	0x3e4c7805	0.19967659
16	0xbd596142	-0.053071268
17	0x3d9aa8e9	0.07551748
18	0x3e8864ff	0.26639554
19	0x3e22a321	0.15882541
20	0x3d90a28e	0.07062255
21	0x3eb3ab1e	0.3509149
22	0xbeac09e1	-0.33601287
23	0x3eb6210b	0.35572085
24	0xbeb5fcfe	-0.3554458
25	0x3e380a1a	0.17972603
26	0xbebdd37f	-0.3707542
27	0xbe0f2e64	-0.1398254
28	0xbda52113	-0.08062949
29	0x3d87d44d	0.0663229
30	0x3e9584a0	0.29202747
31	0x3e6c7d23	0.23094611
32	0xbd915b29	-0.070974655
33	0xbd6e6d93	-0.058209967
34	0x3e42d9cc	0.19028395
35	0x3ca80675	0.020510891
36	0x3e93df32	0.28881222
37	0x3e031f2a	0.12804857
38	0x3caab2c2	0.020837191
39	0x3e378905	0.17923363

lstm.bias_hh_l0 f4 [40]
0	0xbd6030d3	-0.054734062
1	0x3eb0f7d9	0.34564093
2	0x3d9e8ea3	0.077420495
3	0x3d922835	0.07136575
4	0x3eb97805	0.3622438
5	0x3e514a5d	0.20438524
6	0x3ed389cc	0.41316068
7	0x3ebe25ff	0.37138364
8	0x3e03b1fa	0.12860861
9	0x3d3acaf2	0.0456037
10	0xbeb39179	-0.35071924
11	0xbdd7d1b0	-0.105380416
12	0x3d3836ca	0.044974126
13	0x39fedeb4	0.00048612582
14	0x3dd0c73d	0.10194252
15	0x3d99377a	0.074812844
16	0xbe13cf33	-0.14434509
17	0x3e9952fb	0.29946122
18	0xbe2eacc8	-0.17058098
19	0x3cf6487b	0.030063858
20	0xbca84e07	-0.020545019
21	0x3cf80780	0.030277014
22	0x3e5418e8	0.20712626
23	0x3e6a674a	0.22890964
24	0xbe499797	-0.19686733
25	0x3c85e9c7	0.016346825
26	0x3e1e7ccf	0.15477298
27	0xbd389291	-0.04506165
28	0xbe440b31	-0.19144894
29	0x3e1d9c59	0.15391673
30	0xbe993f35	-0.29931036
31	0xbe0cfc1e	-0.1376805
32	0xbe59d673	-0.21273212
33	0xbda92af8	-0.08260149
34	0x3e204a78	0.15653408
35	0x3ed68b65	0.41903225
36	0x3db01388	0.08597475
37	0xbd647a9f	-0.055781003
38	0x3e87c803	0.26519784
39	0x3c9fbf99	0.01950054

predcharlayer.weight f4 [1650, 1]
0	0xbf9c66a8	-1.2218828
1	0xbf6bb470	-0.920722
2	0xbe87156d	-0.26383534
3	0xc02fe90c	-2.748599
4	0xbfbf0b34	-1.4925294
5	0xbf415d70	-0.755332
6	0xc108e4d5	-8.555867
7	0xbfc2e3a4	-1.522572
8	0xc0864d0e	-4.196906
9	0xbf9e8cc9	-1.2386714
10	0xbf48961d	-0.78354055
11	0xc0b05c3b	-5.5112586
12	0xc0a0577c	-5.0106792
13	0xbe7269a5	-0.23673113
14	0xbfe6f37c	-1.8043056
15	0xc066e60f	-3.6077917
16	0xbe7ecfa6	-0.24883899
17	0xbf37cc35	-0.7179597
18	0xbe926c58	-0.28598285
19	0xbfa2897e	-1.2698209
20	0xc01d37c7	-2.4565294
21	0xbf096b6e	-0.5367955
22	0xbfa437d4	-1.2829537
23	0xc087c870	-4.2432175
24	0xc018cfca	-2.3876824
25	0xc0bd9987	-5.924991
26	0xbf0ede63	-0.55808085
27	0xbf8f1f81	-1.1181489
28	0xbfe3c04c	-1.7793059
29	0xc0e0e55e	-7.027999
30	0xbf98ec51	-1.1947118
31	0xbf98a746	-1.1926048
32	0xbe9d19b5	-0.30683675
33	0xc127116b	-10.441752
34	0xbf1fce5c	-0.62424254
35	0xbe5657fa	-0.20931998
36	0xbef078df	-0.46967217
37	0xc14d7f24	-12.84354
38	0xbfdc329e	-1.7202947
39	0xbf2499e8	-0.6429734
40	0xbd7409d7	-0.059579697
41	0xbf9d6059	-1.2295028
42	0xc06d35a2	-3.7063985
43	0xbff9d984	-1.9519506
44	0xbfc61ba5	-1.5477186
45	0xbfaf561b	-1.3698152
46	0xc003c422	-2.058846
47	0xbf7d6f0c	-0.9899757
48	0xbf4c2a21	-0.79751784
49	0xbf783e00	-0.96969604
50	0x3ed348c6	0.4126646
51	0xbde1d263	-0.11026456
52	0x3d376d24	0.04478182
53	0x409fd7cf	4.995094
54	0x3f708f0a	0.9396826
55	0x3f20f64f	0.6287584
56	0x3eb28c64	0.34872735
57	0xc10846a1	-8.517243
58	0x3f2f1779	0.6839519
59	0x3f6e5df5	0.9311212
60	0xbf4918fa	-0.78553736
61	0x40055b60	2.083702
62	0x3fe6eb36	1.8040531
63	0x3f90b441	1.1305009
64	0xbee489a8	-0.44636273
65	0x3e701d45	0.23448665
66	0xbf09f812	-0.5389415
67	0x3f4507c2	0.7696496
68	0x3f1712eb	0.5901324
69	0x3f440b8c	0.7658012
70	0x3f4efc3d	0.80853635
71	0xbf392f7f	-0.723381
72	0xbeaa8362	-0.33303362
73	0x3f62162d	0.8831509
74	0x3f0f932e	0.56083953
75	0x3f1b0a8a	0.60562956
76	0xbe7c01f2	-0.24610117
77	0x3ed454cf	0.41470954
78	0x405cf346	3.4523482
79	0x3f182416	0.5943006
80	0xbf066e89	-0.52512413
81	0x3f7be1b0	0.98391247
82	0xbeb7f9c3	-0.3593274
83	0x3ead9771	0.33904603
84	0x3f2abbdb	0.66692895
85	0x3e9d03d8	0.30666995
86	0x3ec74a8b	0.3892406
87	0x40cd95b1	6.424523
88	0x3ecb01cd	0.3964981
89	0xbfce1db5	-1.6102816
90	0x3f5cf0c6	0.8630489
91	0xbe53c3a8	-0.20680106
92	0xbf45305e	-0.7702693
93	0xbf64b481	-0.8933793
94	0x3f01a350	0.5063982
95	0xbf3d6bd6	-0.7399267
96	0x3f184c44	0.5949137
97	0xbee662f9	-0.44997385
98	0xbf2cb7d9	-0.6746803
99	0x3f8857e2	1.065182
100	0x3f549575	0.83040553
101	0x3da4d567	0.08048516
102	0xbec80093	-0.39062938
103	0xbfcef27c	-1.616775
104	0xbfcc43ac	-1.5958152
105	0x3f3e8f4a	0.7443739
106	0xbf2dde5e	-0.6791743
107	0xc0bab820	-5.834976
108	0x3e7833b7	0.24238478
109	0xbf64d48c	-0.8938682
110	0xbd285fe9	-0.041107092
111	0x3f1c5ce6	0.6107925
112	0x3f463447	0.7742352
113	0xbfe988f1	-1.8244916
114	0x3f550357	0.8320822
115	0x3e7e0b06	0.24808893
116	0xbf95961a	-1.1686432
117	0x3d2f69d6	0.042825542
118	0x3e96ee94	0.29478896
119	0x3e30bb13	0.17258863
120	0x3ebe80d9	0.37207678
121	0x3f3419cc	0.7035186
122	0xbfe9cb3d	-1.8265148
123	0x3e966e03	0.29380807
124	0x3ebf7c5f	0.37399575
125	0xbfa6718c	-1.3003402
126	0xbea25b6e	-0.3171038
127	0x3e9b423a	0.30323964
128	0xbd127e71	-0.035765115
129	0xbf2bb67e	-0.67075336
130	0xbf4a3fe4	-0.7900374
131	0x3e20440a	0.15650955
132	0xbf19c347	-0.60063595
133	0x3ed00c9a	0.40634614
134	0xc0c789ec	-6.235586
135	0x3e75fc7b	0.24022095
136	0xbe91dca2	-0.28488642
137	0xc10aa3cc	-8.664989
138	0x3c38da75	0.011282553
139	0x3e96db7d	0.2946433
140	0xbe43cd94	-0.1912139
141	0xbf0fe45f	-0.5620784
142	0xbe6e79a1	-0.23288585
143	0xbf2831c8	-0.6570096
144	0x3d9e6723	0.077345155
145	0x3f35cc07	0.71014446
146	0xbf887fc7	-1.0663995
147	0x3e8ae92a	0.27131015
148	0x3f07ac9e	0.5299777
149	0x3e573188	0.21014988
150	0xbf1185bd	-0.56844693
151	0x3f65b5b0	0.8973036
152	0x401b3d0e	2.4256015
153	0x3fd28f60	1.6450005
154	0x3e8c65f6	0.2742154
155	0x3f44a68e	0.7681664
156	0x3d92eb96	0.07173841
157	0xbe3e5ad2	-0.18589333
158	0x3f3d0c5e	0.73846996
159	0x3f449cba	0.76801646
160	0x3fa292d5	1.270106
161	0x4043e3db	3.0607822
162	0x3feca51c	1.8487887
163	0x3fa5e34f	1.2959994
164	0xbe60d80d	-0.21957417
165	0x3f856a0d	1.0422989
166	0x3f19b4c8	0.60041475
167	0x3e36d781	0.17855646
168	0xbe932154	-0.28736365
169	0xbf86f06a	-1.0542119
170	0x3f92a068	1.1455202
171	0x3ecf23bc	0.4045695
172	0x3f1b76f0	0.6072836
173	0x3fb537d1	1.4157659
174	0x3f7fda0d	0.99942094
175	0x3f6f8b13	0.93571585
176	0xbf1162dc	-0.5679147
177	0x3c8630dc	0.01638072
178	0x4080b707	4.022342
179	0x3e003860	0.12521505
180	0xbf1b2a15	-0.6061109
181	0xbf209b18	-0.62736654
182	0x3e703c38	0.23460472
183	0x3eee4959	0.46540335
184	0xbf014a75	-0.5050424
185	0x3f53204d	0.8247116
186	0x3e556c9e	0.20842215
187	0x40cacd9c	6.337599
188	0x3e942eec	0.2894205
189	0x3f6a05ac	0.91414905
190	0x3ed3832b	0.4131101
191	0x3efa0f42	0.48839766
192	0xbeb3f630	-0.35148764
193	0x3f06cb6f	0.52654165
194	0x3f5a51d8	0.85281134
195	0x3ec4d7af	0.38445804
196	0xbf0f0aca	-0.5587584
197	0x3e9ab1c2	0.30213743
198	0x3f113e21	0.56735426
199	0x3dbfaaa5	0.0935872
200	0xbf18760c	-0.59555125
201	0xbf3180b5	-0.69337016
202	0xbc5bf246	-0.013424462
203	0xbf89f1de	-1.0776937
204	0xbf3872a9	-0.7204996
205	0xbcea96ac	-0.0286363
206	0x3d84c2aa	0.06482442
207	0xc0b6f67e	-5.7175894
208	0xbe898993	-0.26862773
209	0xbf5428b5	-0.82874614
210	0x3f3ae926	0.73012006
211	0xbfb61397	-1.4224728
212	0xbfa3be4d	-1.279245
213	0xbf272e08	-0.65304613
214	0x3d8a07cf	0.067397706
215	0xbe86be14	-0.26316893
216	0xbf437863	-0.7635557
217	0xbe0b6b8d	-0.13615246
218	0x3f101cd6	0.56294
219	0x3f91ef49	1.1401149
220	0xbef8016b	-0.48438582
221	0x3f3ff7e1	0.7498761
222	0xbe817e25	-0.25291553
223	0xbf5a634a	-0.85307753
224	0x3f09a4de	0.5376719
225	0x3b0440ec	0.0020180298
226	0x3e3c96c2	0.18416885
227	0xbef07fc5	-0.4697248
228	0xbf0e165d	-0.55502874
229	0xbdc44bf0	-0.095847964
230	0x3ece1e16	0.4025733
231	0x3d95a6e6	0.07307224
232	0x3e98dbbe	0.2985515
233	0xbf2b27be	-0.66857517
234	0xbe951b00	-0.29122162
235	0xc0c4f0c2	-6.1543894
236	0xbd1f4908	-0.038888007
237	0xc1084360	-8.516449
238	0xbe9c1a78	-0.30488944
239	0xbf35664e	-0.7085923
240	0xbdf6e9ca	-0.120563105
241	0x3f34a1ed	0.7055958
242	0x3ee98c51	0.45614865
243	0xbf2df98d	-0.6795891
244	0x3f7aa77d	0.97911817
245	0xbea2350f	-0.31681105
246	0xbf9a9d9d	-1.207935
247	0xbebd4e3e	-0.36973757
248	0xbf297ee1	-0.66209227
249	0xbedd5d09	-0.43235043
250	0xbf887a1c	-1.0662265
251	0xbf0f43da	-0.5596291
252	0x3f508671	0.8145514
253	0xbf90dad0	-1.1316776
254	0xbdf3f56e	-0.119120464
255	0xbf7e10d8	-0.9924445

predcharlayer.bias f4 [1650]
0	0xbf8fae43	-1.1225055
1	0xbf93c32a	-1.1543934
2	0xbfa88aea	-1.3167393
3	0x3ffbc1df	1.966854
4	0xbf9d7446	-1.2301109
5	0xbfe91635	-1.8209902
6	0x4041caa6	3.0279937
7	0x3f2345f7	0.6377863
8	0x4027b3ce	2.6203494
9	0xbfd7fcee	-1.6874063
10	0xbe2a74d0	-0.16646123
11	0x404f5942	3.2398229
12	0x404e4f24	3.2235804
13	0xc00d79a4	-2.2105494
14	0x3fafb7eb	1.3728002
15	0x4044ac2f	3.0730093
16	0xc007df3e	-2.1230006
17	0xbff1b427	-1.8883103
18	0xc0099053	-2.1494339
19	0xbfc6525e	-1.5493886
20	0x3fd1fd06	1.6405342
21	0xbfea2828	-1.8293505
22	0xbe2d708b	-0.16937463
23	0x4020c7b6	2.5121894
24	0x3fc2d4be	1.5221174
25	0x405b534e	3.4269595
26	0xbfaba96d	-1.341108
27	0x3c9311a6	0.017952751
28	0x3f303206	0.6882633
29	0x40bddcfa	5.9332247
30	0xbfd4270d	-1.6574417
31	0xbfcc6334	-1.5967774
32	0xc0037f1f	-2.0546339
33	0x40b9a09d	5.800856
34	0xbfdf3eb3	-1.7441009
35	0xc0033a4e	-2.0504336
36	0xc0085c51	-2.1306345
37	0x40e3aeaf	7.1150737
38	0x3edf9112	0.43665367
39	0xbf95b227	-1.1694993
40	0xc016479d	-2.348121
41	0xbfca000a	-1.5781262
42	0x4002c052	2.0429883
43	0x3f6909c6	0.9103054
44	0xbf79c9a0	-0.9757328
45	0xbfb67516	-1.4254482
46	0xbf2fc7b9	-0.6866413
47	0xbebb7e32	-0.36619717
48	0xbfeb3e1e	-1.8378332
49	0xbec6162e	-0.38688797
50	0xbfad071f	-1.3517798
51	0xbfdf0aca	-1.7425168
52	0xbe8cba53	-0.27485904
53	0x4006ad6f	2.1043355
54	0xbf5a6704	-0.8531344
55	0xbfad17b8	-1.3522863
56	0xbfba2ae4	-1.4544339
57	0x40826da5	4.0758843
58	0xbfabd548	-1.3424463
59	0x3fbce67e	1.4757841
60	0x400d66ec	2.2094069
61	0x40586aed	3.3815262
62	0x4072a17e	3.7911067
63	0x3fb901f4	1.4453721
64	0x402a3220	2.6593094
65	0x4025cf65	2.5907834
66	0xbfb39f09	-1.4032909
67	0xbf8f37d3	-1.1188911
68	0xbfde5770	-1.7370434
69	0xbf8b76ca	-1.0895627
70	0x4043e9a7	3.061136
71	0x401e3af3	2.472348
72	0xbfd6a1bd	-1.6768109
73	0x402fbfea	2.7460885
74	0x3fd2287c	1.6418605
75	0x4051b765	3.2768185
76	0xbfcd03dd	-1.6016804
77	0x3f1ac06d	0.6044987
78	0x406bab28	3.6823215
79	0xbfd78e6f	-1.6840342
80	0xbfd47fd3	-1.6601509
81	0x3f64f976	0.8944315
82	0xbf9c9e06	-1.2235725
83	0xbfad2b64	-1.3528867
84	0x3f5b60e8	0.8569474
85	0xbe603c6b	-0.21898048
86	0xbfc64320	-1.5489235
87	0x40d1d87f	6.5576777
88	0x40589012	3.3837934
89	0x403272c0	2.7882538
90	0xbfc3369c	-1.525104
91	0xbfaf58df	-1.3698996
92	0x3fafbb63	1.3729061
93	0xbfd48f71	-1.6606275
94	0xbfa623a3	-1.2979625
95	0xbfaf08c1	-1.3674546
96	0xbfaf30e6	-1.3686798
97	0x400e1a14	2.2203417
98	0x3fa57cce	1.2928712
99	0x4028b844	2.6362467
100	0xbfd9aeca	-1.7006466
101	0x3da8d7c2	0.082442775
102	0x3fb3c09e	1.4043157
103	0x4041cf76	3.0282874
104	0xbf9bbe89	-1.2167522
105	0xbfd447de	-1.6584432
106	0xbfc00f7b	-1.5004724
107	0x4080548a	4.0103197
108	0xbfc69b2c	-1.5516105
109	0x406e416e	3.7227435
110	0x3fcf78ff	1.62088
111	0x3fc85c53	1.5653175
112	0x40006cf7	2.0066507
113	0x401f1b95	2.4860585
114	0x403217b6	2.7826972
115	0x3fd4a2d6	1.6612194
116	0x4097d085	4.744204
117	0x405f7703	3.491639
118	0xbfcc9cd9	-1.5985366
119	0xbfa41473	-1.2818741
120	0x401a8df3	2.414914
121	0xbfc36009	-1.5263683
122	0x4038927c	2.8839407
123	0x40293076	2.6435828
124	0x4003b5e4	2.0579767
125	0x3ff7da57	1.9363507
126	0xbfcc9ea1	-1.598591
127	0xbf836d95	-1.0267817
128	0x404a51a1	3.1612322
129	0xbfdcf3b4	-1.7261872
130	0x40650cfb	3.5789173
131	0xbfe4e8ad	-1.7883507
132	0x403060a2	2.755898
133	0xbfceec92	-1.6165946
134	0x40af81db	5.4846015
135	0xbecaad3c	-0.39585292
136	0xbfd0b5ab	-1.6305441
137	0x40d69c84	6.706606
138	0x40431d76	3.0486732
139	0x400eb091	2.2295268
140	0xbfda12ac	-1.7036948
141	0xbfec01f3	-1.8438095
142	0xbfed024e	-1.8516328
143	0xbe04e88a	-0.12979332
144	0xbfc39aa7	-1.5281571
145	0xbfd763a1	-1.6827279
146	0xbfb2bc46	-1.3963706
147	0x3ee7f96e	0.45307487
148	0xbfe62203	-1.797913
149	0x402416b8	2.5638866
150	0x3f58bac6	0.84659994
151	0x3e5bb72d	0.21456595
152	0x4030b545	2.7610638
153	0x40142eba	2.315352
154	0xbfce5a33	-1.6121277
155	0xbfcd4d27	-1.603917
156	0xbfd7dae1	-1.6863672
157	0x40029fc6	2.0410018
158	0xbfe63283	-1.7984165
159	0xbfdc4660	-1.7208977
160	0x3fb3a679	1.4035178
161	0x4027a6ab	2.6195476
162	0x405a80d0	3.414112
163	0x3fe93e2d	1.82221
164	0x3f94f31d	1.1636692
165	0x4041bf00	3.0272827
166	0xbf283817	-0.65710586
167	0xbfc6f32d	-1.5542961
168	0xbfea5257	-1.8306378
169	0xbfb29294	-1.3950982
170	0x401ccde7	2.4500673
171	0x400b89bc	2.1802816
172	0x400695e4	2.1028986
173	0x40127b05	2.2887585
174	0x3fbd912b	1.4809927
175	0x404deb48	3.2174854
176	0xbff3a7ec	-1.9035621
177	0xbf855a85	-1.0418249
178	0x403393a8	2.8058872
179	0xbff1631e	-1.8858373
180	0xbfacbda1	-1.349537
181	0xbfd058d1	-1.6277105
182	0x3fede1f6	1.8584583
183	0xbfd762e7	-1.6827058
184	0x3f036426	0.5132469
185	0xbf8ca2e5	-1.0987211
186	0xbeb26de9	-0.3484948
187	0x40c5b3da	6.1782045
188	0x3f6804b9	0.90632206
189	0xbff84143	-1.9394916
190	0xbfcf6ca6	-1.6205032
191	0xbfe157fd	-1.7604977
192	0x3e6c1c62	0.23057702
193	0x3fd61df2	1.6727889
194	0x3f35b1dd	0.7097452
195	0xbfdbb08e	-1.7163255
196	0xbfe44466	-1.7833374
197	0x3f8a65f6	1.0812366
198	0x3e556435	0.20839007
199	0x3d8629d2	0.06550945
200	0xbfde8bf8	-1.7386465
201	0xbec423e4	-0.38308632
202	0x40116305	2.2716687
203	0x4015b866	2.3393798
204	0xbfcffa03	-1.6248173
205	0xbfa97cd7	-1.3241223
206	0xbfe458c3	-1.7839588
207	0x40745c06	3.8181167
208	0xbfd52fa0	-1.6655159
209	0x404da069	3.2129157
210	0x3f2198d8	0.63123846
211	0x404b1e2a	3.173716
212	0x4052da80	3.2945862
213	0x404e7498	3.2258663
214	0x3ff94bf1	1.94763
215	0x401a7865	2.4135983
216	0xbfd7e158	-1.6865644
217	0xbfab8da2	-1.3402598
218	0xbfee1629	-1.8600513
219	0xbde06e38	-0.109585226
220	0x3f7bb0ff	0.9831695
221	0xbfda2cf5	-1.704497
222	0xbf7396f9	-0.9515224
223	0x40343aca	2.8160882
224	0x401ff425	2.4992764
225	0x402d0527	2.7034395
226	0xbfd675f9	-1.6754752
227	0xbfedef21	-1.8588601
228	0x4035b44e	2.83913
229	0xbe33e555	-0.17567952
230	0xbfb2a03d	-1.3955151
231	0xbf961901	-1.172638
232	0x3f59ea40	0.8512306
233	0xbfd436fe	-1.6579282
234	0xbfc19f13	-1.5126671
235	0x40a7fcc7	5.2496066
236	0x3ffb3e09	1.9628307
237	0x40d28117	6.578258
238	0xbf958696	-1.1681697
239	0xbf8c99a1	-1.0984384
240	0xc001026e	-2.0157733
241	0xbffdb712	-1.9821494
242	0xbeb10841	-0.3457661
243	0x3f8f4ed3	1.119593
244	0x3ef76950	0.48322535
245	0xbfd3d5a0	-1.6549568
246	0xbfbf19b0	-1.4929714
247	0x3f02e04b	0.51123494
248	0xbfe04f11	-1.7524129
249	0x40037864	2.054223
250	0x40931205	4.5959496
251	0xbf95fd46	-1.1717918
252	0x3ec26715	0.3796927
253	0x404b3b8f	3.1755102
254	0xbf7446fc	-0.95420814
255	0xbf31c043	-0.69433993
